blogs/blogsData/unet_model.onnx (onnx, 250991 bytes, 11 tensors)

encoder.0.weight f4 [16, 1, 3, 3]
-0.17242146 -0.31611165 0.28256086 0.0110655725 -0.20996949 0.24135157 -0.2486289 0.31782326
-0.120233536 -0.15362422 0.08000669 -0.2752322 -0.1481354 -0.010083705 0.092042714 -0.15795657
-0.27150792 -0.056473702 -0.26261446 -0.096507356 0.24028662 0.2761909 -0.02855444 0.17882684
-0.20073566 0.24902716 0.1327686 0.06466547 0.28897992 -0.010830849 0.16754928 -0.14086537
-0.27161276 -0.08535549 -0.06873146 -0.16708717 -0.21542554 -0.27120197 0.24482551 0.112303495
-0.02969265 -0.23286831 0.29780737 -0.09081611 -0.10611209 0.14230382 0.28505114 -0.21091127
-0.13204555 -0.18284616 -0.08069959 -0.20276022 0.30173126 -0.3277048 0.32800975 0.10429844
-0.011480361 0.1351701 0.038437277 0.15648115 0.10487485 0.1147401 0.192655 -0.03683129
0.17696401 0.32118067 -0.05398962 -0.03531131 -0.058908075 0.08211744 0.1455102 -0.04527828
-0.31101882 -0.32013723 0.058311254 0.15520802 -0.28510898 0.23301068 0.08070958 -0.31987715
0.18710712 4.7773123e-05 -0.23522627 -0.33012837 -0.12172501 0.16446912 -0.22797832 0.07588446
0.08875832 -0.03455153 0.3108386 -0.23023745 -0.1437875 -0.112288445 -0.11099474 0.07791719
0.050766557 0.22299823 -0.02938351 0.3293337 0.2278901 0.088333845 -0.23668651 0.18048838
-0.0018545687 0.15243271 0.033020377 0.21078184 -0.18233725 0.2570007 -0.017197609 0.14573744
0.060353726 -0.26591486 0.2542641 0.29298738 0.035443425 -0.20899796 0.18589106 0.10958767
0.115305424 -0.28238568 -0.13208155 -0.21138453 -0.13758239 -0.09876323 0.1970227 0.045597076
-0.037967592 0.288237 0.10141888 -0.07227436 -0.1163007 -0.33229753 -0.18038568 0.22937635
0.15543225 -0.22829473 0.10765633 -0.12791547 -0.19268283 -0.06887245 0.1794307 -0.21077418
00000000: 408f 30be 63d9 a1be d1ab 903e 604c 353c
00000010: 3e02 57be de24 773e 9398 7ebe bbb9 a23e
00000020: 003d f6bd ab4f 1dbe 8cda a33d 3ceb 8cbe
00000030: ceb0 17be 2036 25bc e480 bc3d 5ebf 21be
00000040: 1603 8bbe f850 67bd 6775 86be a6a5 c5bd
00000050: b20d 763e e568 8d3e 00eb e9bc 621e 373e
00000060: a68d 4dbe fa00 7f3e 7ef4 073e 546f 843d
00000070: 2df5 933e e073 31bc 0a92 2b3e 033f 10be
00000080: d410 8bbe dcce aebd 14c3 8cbd e618 2bbe
00000090: 8398 5cbe fcda 8abe 8ab3 7a3e 60ff e53d
000000a0: 003e f3bc 0875 6ebe 357a 983e ccfd b9bd
000000b0: 4c51 d9bd 18b8 113e 39f2 913e 20f9 57be
000000c0: f336 07be 063c 3bbe d445 a5bd 60a0 4fbe
000000d0: 857c 9a3e ecc8 a7be e5f0 a73e 6c9a d53d
000000e0: 2018 3cbc 086a 0a3e 6870 1d3d 983c 203e
000000f0: a0c8 d63d dcfc ea3d 5a47 453e 68dc 16bd
00000100: 0e36 353e cb71 a43e 3824 5dbd 98a2 10bd
00000110: 9849 71bd 302d a83d a000 153e b875 39bd
00000120: dc3d 9fbe 07e9 a3be c8d7 6e3d daee 1e3e
00000130: cef9 91be 5a9a 6e3e 104b a53d f0c6 a3be
00000140: 0299 3f3e 0060 4838 28df 70be 9606 a9be
00000150: f64a f9bd 986a 283e 2673 69be 5069 9b3d
00000160: ecc6 b53d e885 0dbd 3d26 9f3e 5ec3 6bbe
00000170: 083d 13be 7cf7 e5bd 3651 e3bd 0c93 9f3d
00000180: 98f0 4f3d a659 643e b0b5 f0bc 6d9e a83e
00000190: 065c 693e 60e8 b43d f35d 72be f2d1 383e
000001a0: 0015 f3ba 5217 1c3e 6040 073d 32d7 573e
000001b0: 9eb6 3abe 9995 833e 00e2 8cbc 323c 153e
000001c0: 7835 773d fe25 88be e72e 823e 7102 963e
000001d0: 202d 113d 9003 56be 3a5a 3e3e 806f e03d
000001e0: 4025 ec3d db94 90be 6340 07be 3075 58be
000001f0: 66e2 0cbe 6044 cabd 52c0 493e 00c4 3a3d
00000200: e883 1bbd cd93 933e b4b4 cf3d 9404 94bd
00000210: 102f eebd e722 aabe 06b7 38be a2e1 6a3e
00000220: a229 1f3e 18c6 69be ec7a dc3d 46fc 02be
00000230: a64e 45be 000d 8dbd aebc 373e 30d5 57be

encoder.0.bias f4 [16]
0.2637429 -0.2643952 -0.08624224 -0.08462612 -0.32110798 -0.25325662 -0.084396094 -0.040722966
0.022546768 -0.19389693 -0.28956193 0.28158787 -0.21066396 0.18451324 0.20085153 -0.28158593
00000000: 4f09 873e cf5e 87be c69f b0bd 7650 adbd
00000010: 4468 a4be daaa 81be dcd7 acbd 20cd 26bd
00000020: 00b4 b83c eb8c 46be 7641 94be 492c 903e
00000030: 4bb8 57be 0af1 3c3e 06ac 4d3e 082c 90be

encoder.2.weight f4 [32, 16, 3, 3]
0.061604343 0.0061011314 0.035823278 0.0046798885 0.062219627 0.06044709 0.05332219 0.040179797
-0.07669397 -0.076923214 -0.0145840645 0.023814358 -0.017944835 0.045025147 -0.03276097 -0.07348199
0.01255098 0.010675855 0.08054013 0.007812947 0.067198165 0.007591568 -0.06945908 0.0630439
0.07648528 -0.0052317977 -0.03633247 -0.027868927 -0.05301749 0.031250328 -0.0767981 0.013481759
-0.0795932 0.040643655 -0.056211323 -0.05073425 0.051191427 0.017951675 -0.057692092 0.05464334
0.063688524 0.014936984 -0.056506872 0.022529036 0.04210315 0.06599266 -0.021136235 0.018302523
0.0031018183 0.038292535 0.074416764 -0.05528879 0.07902605 0.05498428 5.901605e-05 -0.072802946
-0.081798896 -0.053579997 -0.08294661 -0.0031763017 0.009473868 0.07693306 0.058116622 -0.06074982
-0.022504471 -0.0023250803 0.0027713478 0.06720414 0.020483583 -0.013407148 -0.0381957 0.053329326
-0.02251026 0.013152637 0.038980097 0.03014595 -0.074917436 0.031570457 0.06378562 -0.06934355
-0.034558892 0.08095551 0.038136214 0.079920255 -0.022838533 0.056300975 -0.0254395 -0.04082933
-0.059924 -0.032257717 -0.06994896 -0.033972345 -0.005948998 0.072954066 -0.012647085 0.047645904
0.023042016 -0.027184278 -0.015076488 -0.060948156 -0.024627618 0.015762411 0.06796541 -0.027653009
-0.05335815 -0.016463421 -0.054198276 -0.017819472 -0.04578206 0.06735069 0.01886022 -0.02389159
0.0054367483 0.022068448 0.07422187 -0.0032954216 -0.06011079 0.01831127 -0.08073777 0.035612226
0.035633534 0.022858165 -0.06725964 0.040724546 0.03093616 -0.0557203 0.0519946 -0.07964887
0.03400772 0.06932873 0.057983853 -0.001285702 0.04353621 -0.034695935 -0.030872326 0.041266687
0.050587974 0.01936046 0.054263987 0.023901314 0.02249173 0.02164524 0.066332825 -0.015328348
-0.02543519 -0.069905214 -0.014276065 0.016889565 -0.024288666 -0.005452566 0.03548328 -0.05203396
-0.024605941 0.019378118 0.025613613 -0.059957445 0.05234327 0.039286166 -0.0025241598 0.046084203
-0.044753425 0.025327653 0.06040717 0.017486274 0.008412808 -0.046668075 -0.027873348 -0.006223224
0.034600593 -0.0795894 -0.034139544 0.08075196 -0.007886596 -0.005040765 -0.02670627 0.026241004
-0.013970099 0.011545889 0.07786677 -0.021036457 0.043920122 0.04346194 -0.04785637 0.015348099
-0.06650902 -0.069321714 0.023613565 -0.04403053 0.011960469 -0.014401972 0.037950866 -0.055923276
-0.04610026 0.033278547 -0.049532942 0.064528234 0.0764117 0.013154738 0.04773072 -0.021104686
0.012099236 -0.047923356 -0.07955554 -0.0374857 -0.07172924 0.054691143 0.03389769 0.027542226
0.08224148 0.008559115 -0.030967366 0.019986115 -0.07037784 0.06543108 0.0068898723 -0.04122166
0.0075594187 -0.062061302 0.0025172532 -0.024060637 0.041131772 0.040681005 0.025001436 0.059401624
-0.059319288 -0.003911011 -0.002808623 0.05419687 -0.01003328 -0.047088206 -0.025257152 0.027113803
0.030164562 -0.078257285 -0.0014841557 0.050891273 0.045134597 0.02110853 -0.07220641 -0.045101266
0.0052015483 0.07584303 -0.04499393 -0.07053986 -0.065005794 0.049319305 -0.030380677 -0.02995507
0.0052655935 0.061196543 0.055417143 -0.02890731 0.009701312 0.039621823 -0.03227243 0.032999314
00000000: d654 7c3d 00ec c73b 6ebb 123d c059 993b
00000010: 02da 7e3d 5e97 773d 5e68 5a3d 9293 243d
00000020: ba11 9dbd eb89 9dbd 00f2 6ebc 5416 c33c
00000030: 0c01 93bc 4a6c 383d 5e30 06bd ba7d 96bd
00000040: a0a2 4d3c c8e9 2e3c 39f2 a43d e001 003c
00000050: 319f 893d b0c2 f83b 9040 8ebd 291d 813d
00000060: 51a4 9c3d 806f abbb 5bd1 14bd 604d e4bc
00000070: de28 59bd 5800 003d 5248 9dbd 98e2 5c3c
00000080: c201 a3bd f679 263d d83d 66bd b8ce 4fbd
00000090: 1aae 513d 640f 933c 8b4e 6cbd b2d1 5f3d
000000a0: 216f 823d 40ba 743c c073 67bd d08e b83c
000000b0: 5a74 2c3d 2927 873d e625 adbc 2cef 953c
000000c0: e047 4b3b a2d8 1c3d d167 983d 8076 62bd
000000d0: 69d8 a13d 3237 613d 0088 7738 b619 95bd
000000e0: 2e86 a7bd b376 5bbd eadf a9bd 8029 50bb
000000f0: 4838 1b3c 158f 9d3d b20b 6e3d ced4 78bd
00000100: 4c5b b8bc 6060 18bb 809f 353b 53a2 893d
00000110: 30cd a73c a8a9 5bbc 1873 1cbd da6f 5a3d
00000120: 7067 b8bc 287e 573c 98a9 1f3d a4f4 f63c
00000130: 506e 99bd 0650 013d 09a2 823d fe03 8ebd
00000140: a08d 0dbd 01cc a53d b834 1c3d 3bad a33d
00000150: e017 bbbc da9b 663d 8066 d0bc a83c 27bd
00000160: de72 75bd ab20 04bd 6641 8fbd 9626 0bbd
00000170: d0ef c2bb f168 953d b835 4fbc 5a28 433d
00000180: 9cc2 bc3c 90b1 debc 6003 77bc c6a4 79bd
00000190: dcbf c9bc 2c20 813c 7331 8b3d 9088 e2bc
000001a0: 138e 5abd 4cde 86bc 03ff 5dbd 24fa 91bc
000001b0: f885 3bbd 29ef 893d c080 9a3c 4cb8 c3bc
000001c0: c026 b23b e4c8 b43c a301 983d 00f8 57bb
000001d0: bb36 76bd 8401 963c d859 a5bd 20de 113d
000001e0: 78f4 113d 0c41 bb3c 6cbf 89bd c8ce 263d
000001f0: d46d fd3c f83a 64bd 4af8 543d f21e a3bd
00000200: ae4b 0b3d 39fc 8d3d 7a80 6d3d 0085 a8ba
00000210: 0653 323d 531d 0ebd f6e7 fcbc 4207 293d
00000220: 5635 4f3d d499 9e3c ea43 5e3d b0cc c33c
00000230: 9440 b83c 5c51 b13c 81d9 873d c023 7bbc
00000240: 765d d0bc 772a 8fbd 28e6 69bc fc5b 8a3c
00000250: 06f9 c6bc 70ab b2bb ea56 113d 9021 55bd
00000260: 6692 c9bc dcbe 9e3c a4d3 d13c f095 75bd
00000270: e665 563d 88ea 203d 606c 25bb cac2 3c3d
00000280: 5e4f 37bd f07b cf3c 826d 773d 603f 8f3c
00000290: e0d5 093c 0627 3fbd a656 e4bc 30ec cbbb
000002a0: 5ab9 0d3d c4ff a2bd e8d5 0bbd 4961 a53d
000002b0: c836 01bc 002d a5bb 1cc7 dabc 60f7 d63c
000002c0: d8e2 64bc f82a 3d3c 9d78 9f3d a654 acbc
000002d0: 96e5 333d 2605 323d 0b05 44bd 9876 7b3c
000002e0: e235 88bd 8bf8 8dbd 3c71 c13c 5b59 34bd
000002f0: d8f5 433c 40f6 6bbc 5e72 1b3d ce0f 65bd
00000300: a0d3 3cbd 164f 083d 0ee3 4abd 6127 843d
00000310: bd7d 9c3d f886 573c 4a81 433d bce3 acbc
00000320: e03b 463c 484b 44bd 04ee a2bd 9b8a 19bd
00000330: c8e6 92bd d203 603d 4ed8 0a3d 3ca0 e13c
00000340: 396e a83d 883b 0c3c 46af fdbc ecb9 a33c
00000350: 4222 90bd bb00 863d 70c4 e13b 0bd8 28bd
00000360: 00b5 f73b fe33 7ebd 80f8 243b d01a c5bc
00000370: ca79 283d 20a1 263d d0cf cc3c 1e4f 733d
00000380: c8f8 72bd f027 80bb e010 38bb 8afd 5d3d
00000390: a062 24bc 90df 40bd 16e8 cebc c41d de3c
000003a0: ac1b f73c 5b45 a0bd 0088 c2ba 5e73 503d
000003b0: 0edf 383d cceb ac3c f4e0 93bd 1bbc 38bd
000003c0: c071 aa3b 9753 9b3d 8e4b 38bd 3477 90bd
000003d0: c221 85bd 0a03 4a3d e6e0 f8bc 5664 f5bc
000003e0: 008b ac3b 3aa9 7a3d 16fd 623d 06cf ecbc
000003f0: 40f2 1e3c 7e4a 223d 1830 04bd 4a2a 073d

encoder.2.bias f4 [32]
0.04671166 -0.058750115 -0.026996784 -0.07946482 0.034169257 -0.040804297 0.042398416 0.009432167
0.00047367066 0.02185192 0.07138819 -0.032781743 0.007388711 -0.02634433 -0.0803833 -0.016984142
-0.020095475 0.0040649846 0.017581694 -0.049155653 0.057389013 0.007014066 0.08260902 0.036361933
0.045985825 0.0592098 -0.011538379 -0.019800968 -0.08101572 -0.0735307 0.028803311 -0.047576815
00000000: ba54 3f3d f6a3 70bd 5c28 ddbc 74be a2bd
00000010: 10f5 0b3d 6822 27bd f6a9 2d3d 6089 1a3c
00000020: 0057 f839 cc02 b33c f933 923d 2646 06bd
00000030: 001d f23b 10d0 d7bc 00a0 a4bd 5422 8bbc
00000040: 449f a4bc 9033 853b 7c07 903c 7057 49bd
00000050: be10 6b3d 40d6 e53b eb2e a93d 40f0 143d
00000060: a25b 3c3d fa85 723d 780b 3dbc a435 a2bc
00000070: 92eb a5bd 4397 96bd ecf4 eb3c e8df 42bd

bottleneck.0.weight f4 [64, 32, 3, 3]
0.050527554 -0.033079423 0.04714008 -0.017077088 -0.031921312 -0.030291187 0.0130252205 -0.03303004
-0.0035721548 -0.035681337 0.03275473 0.02736393 -0.03601146 -0.022064086 -0.052543133 0.026743475
0.04128805 -0.056708388 0.022325922 0.031938475 -0.046581693 -0.057321638 0.035052788 -0.036568336
-0.028700085 0.03907832 0.024130713 -0.045620583 -0.049424097 -0.037485912 0.0069652162 0.054155964
-0.04105501 -0.03699422 0.012501065 0.027672242 -0.033644587 -0.0027292185 -0.03397258 -0.0066838376
-0.011600822 -0.056835055 0.005266484 0.02297147 -0.0049203634 0.019107606 -0.047158226 -0.03873901
-0.027589131 -0.0346808 -0.017330378 -0.006963279 -0.014071245 0.057743806 -0.04877978 -0.016660873
0.015277971 -0.04093004 -0.014171407 -0.0061469786 -0.049922563 -0.017794125 -0.025083207 -0.0447611
-0.010629084 0.026019339 0.005327124 0.043735873 0.020937305 -0.037668064 -0.0072008595 0.054230455
0.047257464 -0.055365905 0.01631375 -0.0023107938 -0.04832925 -0.02181967 -0.039618574 0.010089319
0.024936218 -0.053568475 0.0080545135 0.037094552 0.031002488 0.041221697 0.004299123 0.030806702
-0.003909521 0.019956168 0.014915224 -0.008687321 0.005555492 -0.03796732 0.045684937 0.0077246465
0.008816991 -0.0013526268 0.055071574 0.028868858 0.00402743 -0.0034395345 0.012871023 -0.0018139295
0.02616698 -0.010081414 0.03706569 0.0021348372 0.013665665 -0.00492575 -0.037125368 -0.039104223
-0.0016072989 0.03254092 -0.05225282 -0.0015150867 -0.022346485 0.023259554 0.023896363 -0.02295519
-0.048142195 0.05219662 -0.036451187 -0.03230232 0.022509564 0.02069458 0.014658112 0.02468523
0.018396836 -0.027801622 0.009642843 -0.0072145164 -0.005255025 -0.014719717 0.008665305 0.03295056
-0.01386575 -0.0022614524 -0.058163896 0.011484597 0.007866111 0.015868548 0.017886799 -0.053360987
0.051370773 0.047728937 0.01646712 0.024961952 -0.048069064 0.04933929 -0.0063584 0.047020685
-0.00141773 0.014488731 -0.012280334 0.04238883 -0.029320663 0.012611333 -0.025556888 0.020920496
0.057544436 0.031793233 0.019414913 -0.039855182 0.036422413 -0.056839205 -0.0019115359 0.027770404
0.0030095242 -0.051996954 0.012362856 0.049822647 0.03606226 -0.026539154 0.028106261 0.0020148084
-0.02817025 -0.047864955 -0.031329565 -0.0400136 -0.035741117 -0.01684134 0.018727083 0.048985083
-0.013313852 -0.04533419 -0.03788793 0.04326983 0.023158621 -0.040573947 -0.032260027 -0.045725167
-0.016790919 -0.021103088 -0.030217823 -0.037294656 -0.025031596 0.017187875 -0.05089114 -0.038620844
0.0032993034 -0.043465406 -0.026475113 -0.041377492 0.015129257 0.0418911 0.055261884 -0.024776656
0.0421422 0.00072855875 0.057050254 -0.05667102 -0.015060235 0.00013546646 0.042442296 -0.02360744
0.04634508 0.050180864 0.030157719 0.02308717 -0.047144473 0.03153601 0.010388184 -0.029278347
-0.010029279 0.02897254 -0.031784885 0.004643988 -0.012359515 0.038424823 0.04399373 0.042040523
0.033176776 -0.01624341 0.033245813 -0.0051140636 -0.04425044 -0.046631366 0.05699351 -0.051079728
-0.056384996 -0.006772522 0.029732134 0.007255528 0.032565203 0.04148325 0.019841913 0.04751249
-0.024118513 -0.022872407 0.0173623 -0.041896597 0.01503269 0.034826357 0.035908815 0.057612542
00000000: fbf5 4e3d 4a7e 07bd f515 413d 40e5 8bbc
00000010: ecbf 02bd 3925 f8bc bc67 553c 824a 07bd
00000020: d01a 6abb 9826 12bd d329 063d 522a e03c
00000030: c180 13bd bebf b4bc 7837 57bd 2215 db3c
00000040: a91d 293d 0e47 68bd dae4 b63c ebd1 023d
00000050: 72cc 3ebd 18ca 6abd 8393 0f3d aec8 15bd
00000060: 711c ebbc 9710 203d c6ad c53c a6dc 3abd
00000070: ec70 4abd d48a 19bd 783c e43b a5d2 5d3d
00000080: 4c29 28bd 4087 17bd 44d1 4c3c e6b0 e23c
00000090: e8ce 09bd b0dc 32bb d526 0bbd 1804 dbbb
000000a0: 6011 3ebc e0cb 68bd 7892 ac3b aa2e bc3c
000000b0: 003b a1bb 8e87 9c3c fc28 41bd ccac 1ebd
000000c0: 9a02 e2bc 740d 0ebd 70f8 8dbc 382c e4bb
000000d0: 148b 66bc c584 6c3d 4ecd 47bd 627c 88bc
000000e0: 7450 7a3c 42a6 27bd 302f 68bc 986c c9bb
000000f0: 9a7b 4cbd fcc4 91bc 4c7b cdbc 6a57 37bd
00000100: 9c25 2ebc 8226 d53c 288f ae3b 6324 333d
00000110: b684 ab3c d449 1abd 30f5 ebbb c120 5e3d
00000120: 0b91 413d 5cc7 62bd 6aa4 853c b070 17bb
00000130: e4f4 45bd 2abf b2bc 1647 22bd ac4d 253c
00000140: 0a47 cc3c 9e6a 5bbd 14f7 033c 75f0 173d
00000150: eef8 fd3c 15d8 283d a8df 8c3b 565e fc3c
00000160: 701b 80bb 1e7b a33c fc5e 743c 4455 0ebc
00000170: d80a b63b 9f83 1bbd 2120 3b3d 081f fd3b
00000180: 2475 103c a04a b1ba bb92 613d 627e ec3c
00000190: 88f8 833b d069 61bb fce0 523c 60c1 edba
000001a0: 225c d63c 842c 25bc 31d2 173d a0e8 0b3b
000001b0: f4e5 5f3c 3068 a1bb c510 18bd c02b 20bd
000001c0: 00ac d2ba a149 053d 0e07 56bd e095 c6ba
000001d0: fa0f b7bc d28a be3c 4ec2 c33c 860c bcbc
000001e0: c030 45bd 1fcc 553d d74d 15bd 704f 04bd
000001f0: fa65 b83c ae87 a93c 9428 703c ae38 ca3c
00000200: f6b4 963c 3ac0 e3bc 04fd 1d3c c067 ecbb
00000210: 5832 acbb f82a 71bc ecf8 0d3c 2bf7 063d
00000220: 2c2d 63bc e034 14bb 443d 6ebd e429 3c3c
00000230: dce0 003c c2fe 813c 5687 923c 0d91 5abd
00000240: 296a 523d 6b7f 433d 0ee6 863c 027d cc3c
00000250: 11e4 44bd ff17 4a3d 205a d0bb c398 403d
00000260: 20d3 b9ba 2462 6d3c 7433 49bc e99f 2d3d
00000270: e331 f0bc c49f 4e3c ae5c d1bc 7661 ab3c
00000280: b7b3 6b3d 9f39 023d 060c 9f3c 303f 23bd
00000290: ab2f 153d 3ad0 68bd 808c faba c27e e33c
000002a0: 703b 453b c2fa 54bd 948d 4a3c d512 4c3d
000002b0: 05b6 133d a468 d9bc 1a3f e63c e00a 043b
000002c0: 4cc5 e6bc 0b0e 44bd 6e53 00bd 4de5 23bd
000002d0: 4765 12bd daf6 89bc 8a69 993c 95a4 483d
000002e0: 5822 5abc 58b0 39bd 6030 1bbd b53b 313d
000002f0: 26b7 bd3c de30 26bd 1723 04bd 504a 3bbd
00000300: 1c8d 89bc 62e0 acbc 5e8b f7bc 48c2 18bd
00000310: 100f cdbc 96cd 8c3c 3a73 50bd e430 1ebd
00000320: 2039 583b c808 32bd 56e2 d8bc 727b 29bd
00000330: b4e0 773c 0196 2b3d 495a 623d 6af8 cabc
00000340: 4d9d 2c3d c0fc 3e3a 87ad 693d df1f 68bd
00000350: 34bf 76bc 000c 0e39 f9d7 2d3d 6464 c1bc
00000360: 57d4 3d3d 738a 4d3d 520d f73c 4e21 bd3c
00000370: 901a 41bd e72b 013d 3433 2a3c 25d9 efbc
00000380: d851 24bc d257 ed3c de30 02bd 982c 983b
00000390: 907f 4abc 5963 1d3d c532 343d af32 2c3d
000003a0: 5fe4 073d e610 85bc c32c 083d e093 a7bb
000003b0: f33f 35bd 8800 3fbd 0772 693d fa38 51bd
000003c0: f4f3 66bd 08ec ddbb ce90 f33c c8bf ed3b
000003d0: 1763 053d 57ea 293d 828b a23c 759c 423d
000003e0: 3094 c5bc ea5e bbbc 623b 8e3c c49b 2bbd
000003f0: ac4b 763c 15a6 0e3d 1f15 133d 21fb 6b3d

bottleneck.0.bias f4 [64]
0.011735741 -0.020974196 -0.015728284 0.0043235607 0.04823005 0.019069102 -0.029582985 -0.008832883
0.039691743 0.024636839 -0.04292488 -0.01885641 0.019511428 0.008302856 0.044889104 -0.026438817
-0.04579734 -0.028211927 0.032503437 0.035714287 -0.0056734867 -0.032042008 0.0079333 0.000974793
-0.013993576 0.0061899386 -0.001106672 -0.004511848 -0.0018446892 0.010672998 0.030253906 -0.055479057
0.029152874 0.03496262 0.0028249063 -0.04553502 0.002345562 -0.011492688 -0.047830217 -0.052442368
-0.058715865 -0.016019743 0.015449639 0.041855913 -0.009920489 0.025428984 0.015664544 -0.024416715
0.020358931 0.005523633 -0.045308605 0.048081454 -0.047264054 -0.051245257 0.025752593 -0.016875282
0.014539938 -0.0439209 -0.015609484 0.014292013 -0.05618138 -0.055559874 0.036212917 -0.0062011853
00000000: 4447 403c 14d2 abbc 9ad8 80bc a8ac 8d3b
00000010: df8c 453d ce36 9c3c 0458 f2bc ccb7 10bc
00000020: cf93 223d 32d3 c93c 00d2 2fbd c278 9abc
00000030: 6ed6 9f3c b408 083c a3dd 373d 3896 d8bc
00000040: fe95 3bbd b31c e7bc 5322 053d 2549 123d
00000050: a8e8 b9bb 7b3e 03bd acfa 013c 4089 7f3a
00000060: 5045 65bc f8d4 ca3b c00d 91ba 20d8 93bb
00000070: 80c9 f1ba ccdd 2e3c 0ad7 f73c 023e 63bd
00000080: 02d2 ee3c f734 0f3d 1022 393b ee82 3abd
00000090: 00b8 193b d44b 3cbc 9ee9 43bd cfcd 56bd
000000a0: 0c80 70bd d63b 83bc 7c20 7d3c 1b71 2b3d
000000b0: 8c89 22bc 7250 d03c ee52 803c 9005 c8bc
000000c0: c6c7 a63c 98ff b43b 8495 39bd 0ff1 443d
000000d0: f497 41bd 8ce6 51bd 1af7 d23c 083e 8abc
000000e0: ec38 6e3c 67e6 33bd ecbe 7fbc 0c29 6a3c
000000f0: 721e 66bd c092 63bd ff53 143d 5033 cbbb

decoder.0.weight f4 [64, 32, 4, 4]
-0.032444596 -0.026791265 -0.00965333 -0.009088509 0.009150159 -0.03994648 -0.0040321723 -0.041472465
-0.006906014 -0.0120818615 -0.0016073175 -0.006118279 0.0027681217 0.04264633 0.04173148 -0.03643875
0.03942729 -0.0067369454 0.03161173 -0.006227754 -0.006632082 -0.037904862 -0.007634457 -0.009509277
0.01018513 0.026081901 -0.036499333 0.011677425 0.040561255 0.03307912 0.008166578 -0.021685032
-0.016834453 -0.040455673 0.03239971 -0.031455588 -0.013141049 -0.0059916712 -0.028003609 -0.019581368
-0.022607649 -0.027464708 0.029068578 0.021768223 0.03257345 0.03672697 -0.014954355 0.03039356
-0.0042817146 0.017851166 0.030383538 0.025417607 0.004502747 -0.011388723 0.025421258 0.0303167
0.04140268 0.031706307 0.024357613 0.016098231 0.037135016 0.03608733 -0.01768121 -0.0071754605
0.0209199 0.005415976 0.021731947 0.023365896 -0.008851558 -0.029291738 0.040097523 0.018418606
0.01692902 -0.024402214 0.021086443 0.0075434633 0.01457151 -0.02811897 0.03481168 -0.023178127
-0.039155766 0.02235477 -0.020064255 -0.026400512 0.034440685 0.029012349 0.008137181 0.015078098
-0.029030938 -0.012661066 0.030160774 -0.026051525 0.0009226166 -0.0077011734 0.03888305 0.018738564
0.005003467 -0.042697713 -0.00040642917 0.0008286536 -0.035540797 -0.0025862195 -0.043591063 0.00036791712
-0.00753659 -0.03259346 -0.036983423 -0.013669545 -0.03143179 -0.039276686 0.029953752 0.0422968
0.023117784 -0.013263071 0.0141596235 0.015018728 0.010249555 -0.023274327 -0.015534986 0.005505901
-0.040521108 0.011034038 0.009099569 0.021587994 0.04294971 0.014926586 0.037126366 0.024611194
0.037794482 -0.03831515 0.033170525 -0.010713235 0.032789987 0.009125859 0.000874985 0.024569366
-0.010333639 -0.015860828 -0.016502324 -0.03725896 0.042455282 -0.039392103 0.040346537 0.031028148
-0.035556227 0.0025739819 0.034154158 -0.000100482255 0.025729615 -0.041126277 0.022383008 0.033217255
-0.010478292 0.006930597 -0.033850297 0.022867385 0.02501693 -0.043661546 -0.025493423 0.041060608
0.03409109 0.036444698 -0.004142355 -0.00977435 0.024379846 0.034729157 -0.038357817 0.013492525
0.035533857 -0.037998196 0.029658351 0.023739267 -0.04390295 -0.01596226 0.019196395 -0.00400256
0.0049391463 -0.004860185 0.0045250133 -0.025069218 0.025839735 0.03187224 0.009435292 0.012352597
0.036668252 0.01186211 -0.012383267 -0.04365446 -0.040073883 -0.022271233 -0.032743733 0.008610584
0.02113815 -0.015767748 0.019891646 -0.033672906 0.0025514737 -0.032115497 -0.01300372 -0.006545786
-0.039325353 -0.010934383 0.029948305 -0.026651174 0.040486645 -0.0268039 0.039268274 0.034275863
-0.0368478 -0.0028215982 -0.043420795 0.04335196 0.038056012 -0.04192041 -0.016169127 -0.015685393
0.025536295 0.0023114718 -0.01301169 -0.017750576 0.0067979805 0.034604292 0.005423486 -0.033157974
0.043530505 -0.010453533 -0.033769518 -0.009652507 0.005784683 0.022178803 -0.04084233 -0.028600603
-0.010411967 -0.030837853 0.024536084 0.030874986 0.041481283 0.0002990961 0.010791775 0.016876768
0.020549078 0.029365133 0.0032480732 0.031789046 0.030313764 0.0005876422 0.010836232 0.015007634
-0.033212885 0.0058856867 -0.020836806 -0.0034975968 -0.02332847 -0.03788389 -0.019949995 0.026818242
00000000: a0e4 04bd 5b79 dbbc 0029 1ebc f8e7 14bc
00000010: 8cea 153c ec9e 23bd 5020 84bb 08df 29bd
00000020: d84b e2bb 00f3 45bc a0ac d2ba d87b c8bb
00000030: 6069 353b ebad 2e3d a1ee 2a3d cc40 15bd
00000040: 837e 213d 98c1 dcbb 4d7b 013d 3012 ccbb
00000050: f051 d9bb 2142 1bbd 782a fabb cccc 1bbc
00000060: 88df 263c b6a9 d53c 5380 15bd ac52 3f3c
00000070: 8f23 263d f97d 073d 1ccd 053c cfa4 b1bc
00000080: 68e8 89bc d9b4 25bd 8fb5 043d 93d7 00bd
00000090: 8e4d 57bc c855 c4bb d367 e5bc 1b69 a0bc
000000a0: ad33 b9bc abfd e0bc 3a21 ee3c 4653 b23c
000000b0: bd6b 053d 056f 163d 1c03 75bc eafb f83c
000000c0: a04d 8cbb 9c3c 923c e6e6 f83c 9638 d03c
000000d0: c88b 933b c497 3abc 3e40 d03c ba5a f83c
000000e0: db95 293d 79de 013d 9e89 c73c 70e0 833c
000000f0: e31a 183d 4fd0 133d 2fd8 90bc 2020 ebbb
00000100: 3660 ab3c 8078 b13b 3207 b23c d669 bf3c
00000110: 2006 11bc 3af5 efbc 4d3d 243d 9ee2 963c
00000120: baae 8a3c 27e7 c7bc 7abd ac3c 282f f73b
00000130: 58bd 6e3c c159 e6bc b196 0e3d 0ee0 bdbc
00000140: cc61 20bd 5a21 b73c cb5d a4bc e345 d8bc
00000150: ad11 0d3d 4eab ed3c d051 053c 200a 773c
00000160: 4ad2 edbc 5c70 4fbc ba13 f73c 026a d5bc
00000170: c0db 713a 205a fcbb d543 1f3d 9e81 993c
00000180: 20f4 a33b cce3 2ebd 0016 d5b9 003a 593a
00000190: 3a93 11bd 907d 29bb 8b8c 32bd 00e5 c039
000001a0: 80f5 f6bb b880 05bd ee7b 17bd 3af6 5fbc
000001b0: 9fbe 00bd 97e0 20bd 9261 f53c 693f 2d3d
000001c0: 8261 bd3c 5a4d 59bc c4fd 673c 1c11 763c
000001d0: c0ed 273c cda9 bebc 7486 7ebc d86a b43b
000001e0: 76f9 25bd 1cc8 343c 5c16 153c 4ed9 b03c
000001f0: 09ec 2f3d a48e 743c d111 183d 6a9d c93c
00000200: 63ce 1a3d 59f0 1cbd d1dd 073d 9086 2fbc
00000210: cb4e 063d a084 153c 405f 653a b245 c93c
00000220: 6c4e 29bc 91ee 81bc e22f 87bc da9c 18bd
00000230: 97e5 2d3d 9d59 21bd 6942 253d be2e fe3c
00000240: 68a3 11bd 40b0 283b 3be5 0b3d 00ba d2b8
00000250: eac6 d23c 0774 28bd 925c b73c d10e 083d
00000260: 24ad 2bbc 101a e33b 9ca6 0abd 6254 bb3c
00000270: 4ef0 cc3c 73d6 32bd 95d7 d0bc 2b2f 283d
00000280: 19a3 0b3d 0947 153d 98bc 87bb 9824 20bc
00000290: 3eb8 c73c 2940 0e3d 161d 1dbd c00f 5d3c
000002a0: f38b 113d ffa3 1bbd 12f6 f23c da78 c23c
000002b0: 94d3 33bd 49c3 82bc c241 9d3c e827 83bb
000002c0: 90d8 a13b 3042 9fbb 9046 943b f65d cdbc
000002d0: daad d33c 778c 023d 7c96 1a3c 8c62 4a3c
000002e0: 7331 163d 4c59 423c 30e3 4abc 05cf 32bd
000002f0: 8324 24bd 2972 b6bc 4b1e 06bd 6813 0d3c
00000300: ea29 ad3c 5d2b 81bc cef3 a23c 9aec 09bd
00000310: a036 273b 8a8b 03bd 8e0d 55bc 087e d6bb
00000320: 9f13 21bd 2026 33bc 2656 f53c 9053 dabc
00000330: 53d5 253d da93 dbbc c5d7 203d d964 0c3d
00000340: b8ed 16bd 90ea 38bb 01da 31bd d391 313d
00000350: 9fe0 1b3d bcb4 2bbd 1e75 84bc a77e 80bc
00000360: 7e31 d13c 107c 173b fc2e 55bc a869 91bc
00000370: 98c1 de3b 3bbd 0d3d 80b7 b13b a8d0 07bd
00000380: 0b4d 323d 4c45 2bbc e851 0abd 8c25 1ebc
00000390: 708d bd3b 52b0 b53c 494a 27bd d04b eabc
000003a0: f496 2abc aa9f fcbc e6ff c83c 8aed fc3c
000003b0: 47e8 293d 00d0 9c39 fccf 303c 2641 8a3c
000003c0: 8a56 a83c 268f f03c a0dd 543b 3b35 023d
000003d0: 9254 f83c 000c 1a3a 748a 313c 94e2 753c
000003e0: 3c0a 08bd b8dc c03b f3b1 aabc f037 65bb
000003f0: 591b bfbc 232c 1bbd 2c6e a3bc eeb1 db3c

decoder.0.bias f4 [32]
-0.038482655 -0.034776725 0.010686524 0.007474795 0.005248066 0.013929438 -0.0033713467 0.013472393
-0.022720976 -0.016769141 0.028851528 0.006370276 -0.01810186 -0.043645058 -0.00881191 -0.04211865
0.033173095 0.012625873 -0.03531192 -0.015330095 0.0088614 0.0047972426 0.025280047 -0.010998867
0.04348917 -0.020805344 0.009225618 -0.034441918 -0.029745696 0.011955228 0.028377477 0.006402649
00000000: fd9f 1dbd 0a72 0ebd 8816 2f3c 20ef f43b
00000010: f8f7 ab3b 4c38 643c d0f1 5cbb 50bb 5c3c
00000020: 5721 babc 705f 89bc 0a5a ec3c c0bd d03b
00000030: 5a4a 94bc 29c5 32bd d45f 10bc 9b84 2cbd
00000040: 83e0 073d c0dc 4e3c 3ba3 10bd 142b 7bbc
00000050: 682f 113c 3032 9d3b 1a18 cf3c 9834 34bc
00000060: b321 323d f86f aabc 0c27 173c f812 0dbd
00000070: 3fad f3bc dcdf 433c e277 e83c 50cd d13b

decoder.2.weight f4 [32, 16, 3, 3]
-0.018473446 -0.023279697 0.017584302 0.0047836974 0.03710673 0.0035408437 -0.0020229444 0.061432876
-0.06366959 -0.06324931 -0.063971154 -0.022673927 0.034310035 -0.029707711 -0.051746458 -0.016872227
-0.037589323 0.016314894 -0.0658543 -0.08286062 -0.057677608 -0.021681309 -0.07757588 -0.012582175
0.07624834 -0.008130349 -0.036607783 0.07579575 0.046317495 -0.057798557 0.046882786 0.05884082
-0.05021494 0.028074808 0.04490695 -0.064479694 0.06234794 0.0672066 -0.004155509 0.013581693
-0.047074728 0.015075587 -0.05488087 0.030533843 0.010995179 0.012699276 0.070082866 -0.059856974
0.08030046 0.0104660615 -0.024669968 0.07199893 -0.056284457 0.04284803 0.008911371 -0.066439085
-0.08203845 0.08123096 0.021255799 0.062560864 0.023753412 -0.038325112 0.02342444 -0.056967586
0.019174732 -0.024252832 -0.015717812 0.017338775 -0.049252324 0.06850875 0.027362883 0.00012809038
0.02977299 -0.06547807 0.073061414 0.025202759 0.05858911 0.054038145 0.047385447 0.029586464
-0.056024235 -0.04305911 -0.0108214915 -0.051979057 0.035213716 -0.03206429 0.025609396 0.06646296
-0.050756544 0.06336997 0.023360223 0.07379357 0.023160331 0.013425298 0.015880287 0.0530437
0.061603777 -0.03908688 0.06693087 0.08206812 -0.012407117 -0.023018211 0.0070689246 -0.034264266
0.04120186 -0.079329275 -0.0661078 -0.06789934 0.010380514 0.018318586 0.04166854 0.03142792
0.05812303 0.036021143 0.013986878 -0.0073115304 0.0619066 -0.06974743 -0.049577266 -0.06275864
-0.08003752 -0.07857602 -0.07312637 0.00053822994 -0.07702947 -0.082322925 0.074488245 -0.074877545
-0.045894425 0.035645388 0.053443022 0.061557196 0.045902662 -0.04937474 -0.0030038059 0.02155611
-0.06207944 -0.02107799 0.043872185 0.08025793 -0.059164327 0.018397026 0.049215026 0.04277707
-0.071341954 -0.04129548 -0.001248002 -0.050055593 -0.023035645 -0.075677276 -0.035435498 0.03363675
-0.06411582 -0.026344351 -0.067860514 0.0049753413 -0.0039055943 -0.04504068 0.04916746 -0.04705901
0.030142523 0.07454372 -0.060676306 -0.016539358 -0.06943959 -0.029962026 0.0072858036 -0.069890425
-0.016228944 -0.054215174 -0.025834452 -0.023014419 -0.011614703 0.011482269 0.05096949 0.027410649
-0.047203016 0.011053555 -0.082694024 0.0058326647 -0.05744202 0.05664497 0.04159353 -0.023081176
0.034136288 0.056780554 -0.046541184 0.015769921 -0.007394105 0.07018349 0.023807935 0.017398395
0.041761614 -0.0063208714 -0.055404954 -0.073801205 -0.009955592 -0.028989129 0.053559594 -0.07479038
0.04879812 -0.038942866 -0.013851263 0.069999285 -0.05202519 0.0028940663 0.057453044 -0.07142112
0.04913757 -0.06524952 0.023674577 -0.024143498 0.035145134 -0.007394761 0.070480086 -0.035585277
0.009825952 0.06268672 0.000843443 -0.03830011 0.059406675 0.003954135 -0.05791245 0.013531357
-0.03269156 0.06373785 0.0102862045 -0.037107676 0.015280999 0.08333158 0.06889687 -0.0024558678
-0.03230527 0.028285049 -0.02149738 -0.063499086 0.031242192 0.008589573 0.03070078 -0.032156646
0.05428032 -0.045993727 0.037225187 -0.0036387146 0.07359535 0.04985506 0.07980063 0.026266567
0.0824179 0.0049448535 0.07439638 -0.07690482 0.08217039 -0.030032806 0.032083906 -0.012359351
00000000: a055 97bc 10b5 bebc f40c 903c 90c0 9c3b
00000010: 3afd 173d 800d 683b 6093 04bb 0aa1 7b3d
00000020: 3465 82bd db88 81bd 4f03 83bd acbe b9bc
00000030: ae88 0c3d 965d f3bc 18f4 53bd a037 8abc
00000040: 43f7 19bd d0a6 853c 9fde 86bd d4b2 a9bd
00000050: 5b3f 6cbd 009d b1bc 1ae0 9ebd 7825 4ebc
00000060: 1728 9c3d 2835 05bc 0bf2 15bd cd3a 9b3d
00000070: 6ab7 3d3d 2ebe 6cbd 2a08 403d 1203 713d
00000080: 2eae 4dbd 24fd e53c 5af0 373d ee0d 84bd
00000090: 8e60 7f3d 9da3 893d f02a 88bb c085 5e3c
000000a0: 6ed1 40bd 98ff 763c c3ca 60bd 1c22 fa3c
000000b0: 2025 343c a010 503c 9b87 8f3d 962c 75bd
000000c0: 9174 a43d d879 2b3c ac18 cabc 2d74 933d
000000d0: 888a 66bd 6a81 2f3d 0001 123c 3711 88bd
000000e0: c603 a8bd 6b5c a63d a420 ae3c e91f 803d
000000f0: 8496 c23c cbfa 1cbd 9ce4 bf3c d856 69bd
00000100: 5414 9d3c e0ad c6bc a4c2 80bc 0c0a 8e3c
00000110: cebc 49bd 514e 8c3d 2028 e03c 0050 0639
00000120: 7ce6 f33c 5e19 86bd 39a1 953d 0476 ce3c
00000130: 22fb 6f3d 1a57 5d3d 3e17 423d 505f f23c
00000140: ab79 65bd c05e 30bd a04c 31bc fee7 54bd
00000150: 423c 103d d855 03bd ccca d13c bb1d 883d
00000160: 18e6 4fbd 1dc8 813d f05d bf3c 1521 973d
00000170: bcba bd3c c8f5 5b3c 6017 823c 5a44 593d
00000180: 3e54 7c3d 9019 20bd 0d13 893d 5513 a83d
00000190: 3847 4bbc b090 bcbc 70a2 e73b b058 0cbd
000001a0: 48c3 283d 6377 a2bd 8763 87bd cf0e 8bbd
000001b0: 0813 2a3c dc10 963c a2ac 2a3d 90ba 003d
000001c0: 6a12 6e3d e88a 133d 3829 653c 9095 efbb
000001d0: c691 7d3d bed7 8ebd 8811 4bbd 9a87 80bd
000001e0: b6ea a3bd 77ec a0bd 47c3 95bd 0018 0d3a
000001f0: a0c1 9dbd ec98 a8bd 4b8d 983d 6659 99bd
00000200: cbfb 3bbd e600 123d 12e7 5a3d 6623 7c3d
00000210: 6e04 3c3d 2b3d 4abd 80db 44bb 7096 b03c
00000220: 0347 7ebd c0ab acbc 52b3 333d 455e a43d
00000230: 4b56 72bd 5cb5 963c b295 493d 0237 2f3d
00000240: bb1b 92bd 7325 29bd 0094 a3ba 1807 4dbd
00000250: 40b5 bcbc b0fc 9abd d024 11bd b0c6 093d
00000260: 284f 83bd 1cd0 d7bc 74fa 8abd 3008 a33b
00000270: 00f5 7fbb 937c 38bd d263 493d f3c0 40bd
00000280: 74ed f63c 61aa 983d b887 78bd 8c7d 87bc
00000290: 5836 8ebd ec72 f5bc c0bd ee3b b622 8fbd
000002a0: 90f2 84bc bb10 5ebd c6a2 d3bc bc88 bcbc
000002b0: 984b 3ebc 2020 3c3c 62c5 503d 4c8c e03c
000002c0: f357 41bd f819 353c 7c5b a9bd f01f bf3b
000002d0: 5348 6bbd 8e04 683d fa5d 2a3d bc14 bdbc
000002e0: 7ed2 0b3d ba92 683d f8a1 3ebd ec2f 813c
000002f0: 404a f2bb 5dbc 8f3d dc08 c33c 1487 8e3c
00000300: 3a0e 2b3d 501f cfbb 4ef0 62bd 1625 97bd
00000310: c81c 23bc 9c7a edbc 4e61 5b3d b32b 99bd
00000320: 8ae0 473d 8e82 1fbd 68f0 62bc c95b 8f3d
00000330: 5e18 55bd 60aa 3d3b e253 6b3d 3c45 92bd
00000340: 7a44 493d 8aa1 85bd 30f1 c13c 96c8 c5bc
00000350: 58f4 0f3d c04f f2bb dd57 903d dec1 11bd
00000360: 08fd 203c e561 803d 801a 5d3a 93e0 1cbd
00000370: 6a54 733d b091 813b 9b35 6dbd a0b2 5d3c
00000380: 96e7 05bd fd88 823d 7887 283c 38fe 17bd
00000390: 285d 7a3c bfa9 aa3d cd19 8d3d a0f2 20bb
000003a0: 8852 04bd 0cb6 e73c 461b b0bc cf0b 82bd
000003b0: a0ef ff3c 48bb 0c3c 3480 fb3c b0b6 03bd
000003c0: 0a55 5e3d eb63 3cbd 7079 183d 8077 6ebb
000003d0: 29b9 963d d234 4c3d 836e a33d fc2c d73c
000003e0: b7ca a83d 7008 a23b 215d 983d 4680 9dbd
000003f0: f348 a83d 5c07 f6bc 6a6a 033d e07e 4abc

decoder.2.bias f4 [16]
-0.028485827 0.05703319 0.01230704 0.0071654543 -0.06552875 -0.05920742 -0.0437344 0.017830461
-0.0706263 -0.05520063 -0.023781657 0.015187882 -0.029141061 0.0045945942 -0.004744269 0.056208514
00000000: 1c5b e9bc a29b 693d 78a3 493c 30cc ea3b
00000010: f033 86bd 7b83 72bd d822 33bd 3011 923c
00000020: 86a4 90bd 0e1a 62bd c0d1 c2bc 98d6 783c
00000030: 3cb9 eebc 408e 963b d075 9bbb e63a 663d

decoder.4.weight f4 [16, 1, 4, 4]
0.23407316 -0.044432223 -0.18231255 0.17552531 0.09230599 -0.24984762 -0.20230034 0.23233873
-0.007697344 -0.037269622 -0.027967095 -0.17197672 0.16477746 -0.14696035 0.22316119 -0.095299274
0.06511244 0.10723844 0.1417416 -0.058383793 -0.07356268 -0.026413947 0.17916575 -0.24606884
0.022429377 0.052283704 0.08049801 0.16938496 -0.23239055 -0.09401226 -0.014091134 0.13923004
-0.07299939 -0.13449031 -0.18771905 0.20877191 -0.1586603 -0.23430383 -0.09367257 0.09388098
-0.046726435 -0.22165412 0.14932024 -0.03803909 -0.028323919 0.22089264 0.035473734 0.08465055
0.040014774 0.10014844 0.030822963 0.019542962 0.08218315 -0.073812306 0.1404132 0.0045215487
0.08778161 0.026221454 0.025170177 0.16266847 -0.16518763 0.08034083 -0.16396242 0.04329118
0.046733707 0.1853958 -0.005701542 -0.1944592 -0.17812422 -0.037337422 0.06009257 -0.16179037
0.063231856 0.18840611 -0.15105733 0.21281788 0.06352487 -0.16421431 -0.039114356 0.23397511
0.001959592 -0.098276585 0.05564612 -0.10428554 -0.00036105514 -0.06459868 0.2429116 -0.20176706
-0.09835276 0.03130123 0.08949569 0.23384404 0.068672955 0.14011681 0.023730606 -0.16389376
0.024199903 0.23738194 0.09344143 -0.23900491 -0.14950103 -0.03344041 0.117310256 0.061535597
0.090087235 0.19953078 -0.01680854 -0.050724536 -0.094010144 0.1365971 0.036486864 0.06799865
-0.110209644 -0.14965236 -0.1905053 0.045933187 0.20571655 0.018749744 -0.07508698 -0.20164415
0.14563254 0.22401395 -0.15271348 0.17303115 0.023864597 -0.1588318 0.06816694 -0.21271709
-0.07624167 0.04240489 -0.20270908 -0.084640056 0.041306376 0.02973038 0.022757858 -0.14614886
0.17911687 -0.18162549 0.24122354 0.16148996 0.1365222 -0.09022033 -0.16600177 0.023239642
-0.11862719 -0.24089277 0.13647449 -0.02879864 0.13919815 -0.14083314 0.16048408 -0.1538296
0.009124517 -0.13838956 0.06438643 -0.0073584914 -0.21594584 0.18084753 -0.15219882 -0.24014103
0.21094182 -0.073109895 0.09520465 0.24215603 0.1311644 -0.14208943 0.22726005 0.120455235
0.107483804 -0.033494294 -0.19399232 0.064394206 -0.08909419 -0.067209035 -0.05103454 -0.18593231
-0.07417381 -0.16721475 -0.11797652 0.068039626 0.05304572 0.2071746 -0.013358831 -0.051962525
0.21957725 -0.16748562 -0.14599317 -0.13894904 0.21673796 0.24232844 -0.030879408 -0.10996926
-0.10026723 0.006033361 -0.24442914 0.20516762 0.04862711 0.20574147 -0.008351028 -0.025171459
-0.06723148 -0.07767686 -0.0066965222 -0.034728885 -0.13538802 0.08260411 0.15449563 -0.11367759
0.07890496 0.18052009 -0.010599703 0.17412779 -0.12176144 -0.20939666 -0.070426226 -0.16231528
-0.07811248 -0.10980487 0.11142823 0.21531376 0.12931484 0.033328474 -0.110648274 -0.003803283
0.18399057 -0.18651757 0.021660209 -0.17202404 0.023813248 0.20154223 -0.0897398 -0.14164796
0.020051748 -0.086489946 -0.2194452 -0.030194372 0.22353202 -0.10032481 -0.103521645 0.20998222
-0.12322348 0.12563738 -0.111091286 -0.08333725 0.18855193 0.005441457 -0.062462628 -0.114925504
0.1453146 -0.07517272 0.21078864 0.05070868 -0.041333824 -0.19701272 -0.056447297 0.13016868
00000000: e0b0 6f3e 90fe 35bd 24b0 3abe e8bc 333e
00000010: ec0a bd3d 0ed8 7fbe d227 4fbe 34ea 6d3e
00000020: 003a fcbb 08a8 18bd 401b e5bc aa1a 30be
00000030: 6cbb 283e c67c 16be 5e84 643e 442c c3bd
00000040: ac59 853d d49f db3d b624 113e d823 6fbd
00000050: 08a8 96bd 1062 d8bc 3a77 373e 78f9 7bbe
00000060: d0bd b73c 7027 563d 24dc a43d 4073 2d3e
00000070: caf7 6dbe 8089 c0bd 80de 66bc 5292 0e3e
00000080: b480 95bd d4b7 09be 6c39 40be 4ec8 553e
00000090: d877 22be 58ed 6fbe 68d7 bfbd ac44 c03d
000000a0: 3864 3fbd 4cf9 62be 68e7 183e e0ce 1bbd
000000b0: 9007 e8bc ae31 623e e84c 113d 445d ad3d
000000c0: 88e6 233d a01a cd3d 7080 fc3c 9018 a03c
000000d0: a44f a83d e82a 97bd 7ac8 0f3e 8029 943b
000000e0: d8c6 b33d 60ce d63c b031 ce3c 9092 263e
000000f0: f226 29be bc89 a43d c4e5 27be 1852 313d
00000100: d86b 3f3d 66d8 3d3e 00d4 babb 5020 47be
00000110: 3266 36be 20ef 18bd a023 763d 60ac 25be
00000120: b47f 813d 88ed 403e c6ae 1abe eeec 593e
00000130: 5419 823d cc27 28be 6036 20bd 2c97 6f3e
00000140: 806c 003b 3c45 c9bd 30ed 633d a893 d5bd
00000150: 004c bdb9 504c 84bd d2bd 783e 069c 4ebe
00000160: 2c6d c9bd b835 003d 8449 b73d d074 6f3e
00000170: 68a4 8c3d c87a 0f3e b066 c23c c4d3 27be
00000180: e03e c63c 4014 733e 385e bf3d b4bd 74be
00000190: cc16 19be d0f8 08bd 5c40 f03d c00c 7c3d
000001a0: a87f b83d cc51 4c3e 10b2 89bc 88c4 4fbd
000001b0: 6488 c0bd 1ce0 0b3e 4073 153d e042 8b3d
000001c0: 98b5 e1bd 783e 19be d213 43be 7024 3c3d
000001d0: 5ca7 523e 1099 993c 34c7 99bd ce7b 4ebe
000001e0: b220 153e ea63 653e ec60 1cbe 142f 313e
000001f0: b07f c33c cea4 22be 1c9b 8b3d 82d2 59be
00000200: 9824 9cbd c0b0 2d3d f892 4fbe c457 adbd
00000210: e030 293d 208d f33c b06e ba3c 0ca8 15be
00000220: 6a6a 373e 08fc 39be 4e03 773e a05d 253e
00000230: 7acc 0b3e 70c5 b8bd 5efc 29be 1061 be3c
00000240: d0f2 f2bd 98ac 76be f8bf 0b3e 20eb ebbc
00000250: f689 0e3e 9036 10be f055 243e 8285 1dbe
00000260: 007f 153c feb5 0dbe 08dd 833d 801f f1bb
00000270: e820 5dbe 1830 393e 02da 1bbe 88e7 75be
00000280: 2201 583e a4ba 95bd a8fa c23d c0f7 773e
00000290: f64f 063e e47f 11be dcb6 683e 3cb1 f63d
000002a0: 7820 dc3d 5031 09bd eca5 46be 1ce1 833d
000002b0: 0477 b6bd e4a4 89bd 9809 51bd 0a65 3ebe
000002c0: 70e8 97bd 583a 2bbe ac9d f1bd 5c58 8b3d
000002d0: 7846 593d 9425 543e 00df 5abc a8d6 54bd
000002e0: dcd8 603e 5a81 2bbe 3c7f 15be a848 0ebe
000002f0: 8ef0 5d3e f224 783e d0f6 fcbc 9037 e1bd
00000300: e858 cdbd 80b3 c53b a24b 7abe 7617 523e
00000310: 382d 473d e4ad 523e c0d2 08bc 6034 cebc
00000320: a8b0 89bd 0c15 9fbd 806e dbbb e03f 0ebd
00000330: 28a3 0abe 582c a93d 1a34 1e3e cccf e8bd
00000340: ec98 a13d 42da 383e 60aa 2dbc 8e4e 323e
00000350: 105e f9bd 146c 56be a03b 90bd fa35 26be
00000360: 70f9 9fbd 60e1 e0bd 7c34 e43d 367b 5c3e
00000370: 1c6b 043e 7083 083d 909b e2bd 8040 79bb
00000380: 0668 3c3e 76fe 3ebe c070 b13c 1227 30be
00000390: 0014 c33c 1661 4e3e 80c9 b7bd 2a0c 11be
000003a0: 9043 a43c a421 b1bd 3eb6 60be 305a f7bc
000003b0: 94e5 643e 1877 cdbd 2803 d4bd 9405 573e
000003c0: 985c fcbd 16a7 003e d483 e3bd b8ac aabd
000003d0: c213 413e 404e b23b d0d8 7fbd 105e ebbd
000003e0: 5acd 143e 28f4 99bd fad8 573e e8b3 4f3d
000003f0: a84d 29bd b4bd 49be 4835 67bd f04a 053e
